…
2019-12-10 22:49:04.300906: I tensorflow/core/common_runtime/gpu/gpu_device.cc:1001] 0:   N 
2019-12-10 22:49:04.301128: I tensorflow/core/common_runtime/gpu/gpu_device.cc:1115] Created TensorFlow device (/job:localhost/replica:0/task:0/device:GPU:0 with 10232 MB memory) -> physical GPU (device: 0, name: GeForce RTX 2080 Ti, pci bus id: 0000:89:00.0, compute capability: 7.5)
_________________________________________________________________
Layer (type)                 Output Shape              Param #   
=================================================================
conv2d_1 (Conv2D)            (None, 28, 28, 32)        832       
_________________________________________________________________
conv2d_2 (Conv2D)            (None, 28, 28, 32)        25632     
_________________________________________________________________
max_pooling2d_1 (MaxPooling2 (None, 14, 14, 32)        0         
_________________________________________________________________
dropout_1 (Dropout)          (None, 14, 14, 32)        0         
_________________________________________________________________
conv2d_3 (Conv2D)            (None, 14, 14, 32)        25632     
_________________________________________________________________
conv2d_4 (Conv2D)            (None, 14, 14, 32)        25632     
_________________________________________________________________
max_pooling2d_2 (MaxPooling2 (None, 7, 7, 32)          0         
_________________________________________________________________
dropout_2 (Dropout)          (None, 7, 7, 32)          0         
_________________________________________________________________
flatten_1 (Flatten)          (None, 1568)              0         
_________________________________________________________________
dense_1 (Dense)              (None, 256)               401664    
_________________________________________________________________
dropout_3 (Dropout)          (None, 256)               0         
_________________________________________________________________
dense_2 (Dense)              (None, 10)                2570      
=================================================================
Total params: 481,962
Trainable params: 481,962
Non-trainable params: 0
_________________________________________________________________
Epoch 1/30

  1/590 [..............................] - ETA: 3:10:47 - loss: 2.3086 - acc: 0.1094
  8/590 [..............................] - ETA: 23:38 - loss: 2.2879 - acc: 0.1270  
 15/590 [..............................] - ETA: 12:29 - loss: 2.1902 - acc: 0.1906
…
