…
2019-12-10 23:11:08.069965: I tensorflow/core/common_runtime/gpu/gpu_device.cc:1001] 0:   N 
2019-12-10 23:11:08.070177: I tensorflow/core/common_runtime/gpu/gpu_device.cc:1115] Created TensorFlow device (/job:localhost/replica:0/task:0/device:GPU:0 with 10232 MB memory) -> physical GPU (device: 0, name: GeForce RTX 2080 Ti, pci bus id: 0000:05:00.0, compute capability: 7.5)
_________________________________________________________________
Layer (type)                 Output Shape              Param #   
=================================================================
conv2d_1 (Conv2D)            (None, 28, 28, 32)        832       
_________________________________________________________________
activation_1 (Activation)    (None, 28, 28, 32)        0         
_________________________________________________________________
conv2d_2 (Conv2D)            (None, 28, 28, 32)        25632     
_________________________________________________________________
activation_2 (Activation)    (None, 28, 28, 32)        0         
_________________________________________________________________
max_pooling2d_1 (MaxPooling2 (None, 14, 14, 32)        0         
_________________________________________________________________
dropout_1 (Dropout)          (None, 14, 14, 32)        0         
_________________________________________________________________
conv2d_3 (Conv2D)            (None, 14, 14, 32)        25632     
_________________________________________________________________
activation_3 (Activation)    (None, 14, 14, 32)        0         
_________________________________________________________________
conv2d_4 (Conv2D)            (None, 14, 14, 32)        25632     
_________________________________________________________________
activation_4 (Activation)    (None, 14, 14, 32)        0         
_________________________________________________________________
max_pooling2d_2 (MaxPooling2 (None, 7, 7, 32)          0         
_________________________________________________________________
dropout_2 (Dropout)          (None, 7, 7, 32)          0         
_________________________________________________________________
flatten_1 (Flatten)          (None, 1568)              0         
_________________________________________________________________
dense_1 (Dense)              (None, 256)               401664    
_________________________________________________________________
dropout_3 (Dropout)          (None, 256)               0         
_________________________________________________________________
dense_2 (Dense)              (None, 10)                2570      
=================================================================
Total params: 481,962
Trainable params: 481,962
Non-trainable params: 0
_________________________________________________________________
Epoch 1/30

  1/590 [..............................] - ETA: 3:37:20 - loss: 2.3962 - acc: 0.0312
  6/590 [..............................] - ETA: 36:00 - loss: 2.3203 - acc: 0.1120  
 11/590 [..............................] - ETA: 19:31 - loss: 2.2628 - acc: 0.1605
…
