…
2019-12-10 22:49:04.399809: I tensorflow/core/common_runtime/gpu/gpu_device.cc:1001] 0:   N 
2019-12-10 22:49:04.400071: I tensorflow/core/common_runtime/gpu/gpu_device.cc:1115] Created TensorFlow device (/job:localhost/replica:0/task:0/device:GPU:0 with 10232 MB memory) -> physical GPU (device: 0, name: GeForce RTX 2080 Ti, pci bus id: 0000:09:00.0, compute capability: 7.5)
_________________________________________________________________
Layer (type)                 Output Shape              Param #   
=================================================================
conv2d_1 (Conv2D)            (None, 28, 28, 16)        416       
_________________________________________________________________
conv2d_2 (Conv2D)            (None, 28, 28, 16)        6416      
_________________________________________________________________
max_pooling2d_1 (MaxPooling2 (None, 14, 14, 16)        0         
_________________________________________________________________
dropout_1 (Dropout)          (None, 14, 14, 16)        0         
_________________________________________________________________
conv2d_3 (Conv2D)            (None, 14, 14, 16)        6416      
_________________________________________________________________
conv2d_4 (Conv2D)            (None, 14, 14, 16)        6416      
_________________________________________________________________
max_pooling2d_2 (MaxPooling2 (None, 7, 7, 16)          0         
_________________________________________________________________
dropout_2 (Dropout)          (None, 7, 7, 16)          0         
_________________________________________________________________
flatten_1 (Flatten)          (None, 784)               0         
_________________________________________________________________
dense_1 (Dense)              (None, 256)               200960    
_________________________________________________________________
dropout_3 (Dropout)          (None, 256)               0         
_________________________________________________________________
dense_2 (Dense)              (None, 10)                2570      
=================================================================
Total params: 223,194
Trainable params: 223,194
Non-trainable params: 0
_________________________________________________________________
Epoch 1/30

  1/590 [..............................] - ETA: 2:26:17 - loss: 2.2845 - acc: 0.1562
  8/590 [..............................] - ETA: 18:08 - loss: 2.2832 - acc: 0.1191  
 15/590 [..............................] - ETA: 9:35 - loss: 2.2374 - acc: 0.1667 
…
