…
2019-12-10 22:49:04.415218: I tensorflow/core/common_runtime/gpu/gpu_device.cc:1001] 0:   N 
2019-12-10 22:49:04.415410: I tensorflow/core/common_runtime/gpu/gpu_device.cc:1115] Created TensorFlow device (/job:localhost/replica:0/task:0/device:GPU:0 with 10232 MB memory) -> physical GPU (device: 0, name: GeForce RTX 2080 Ti, pci bus id: 0000:08:00.0, compute capability: 7.5)
_________________________________________________________________
Layer (type)                 Output Shape              Param #   
=================================================================
conv2d_1 (Conv2D)            (None, 28, 28, 32)        832       
_________________________________________________________________
conv2d_2 (Conv2D)            (None, 28, 28, 32)        25632     
_________________________________________________________________
max_pooling2d_1 (MaxPooling2 (None, 14, 14, 32)        0         
_________________________________________________________________
dropout_1 (Dropout)          (None, 14, 14, 32)        0         
_________________________________________________________________
conv2d_3 (Conv2D)            (None, 14, 14, 32)        25632     
_________________________________________________________________
conv2d_4 (Conv2D)            (None, 14, 14, 32)        25632     
_________________________________________________________________
max_pooling2d_2 (MaxPooling2 (None, 7, 7, 32)          0         
_________________________________________________________________
dropout_2 (Dropout)          (None, 7, 7, 32)          0         
_________________________________________________________________
conv2d_5 (Conv2D)            (None, 7, 7, 32)          25632     
_________________________________________________________________
conv2d_6 (Conv2D)            (None, 7, 7, 32)          25632     
_________________________________________________________________
max_pooling2d_3 (MaxPooling2 (None, 3, 3, 32)          0         
_________________________________________________________________
dropout_3 (Dropout)          (None, 3, 3, 32)          0         
_________________________________________________________________
flatten_1 (Flatten)          (None, 288)               0         
_________________________________________________________________
dense_1 (Dense)              (None, 256)               73984     
_________________________________________________________________
dropout_4 (Dropout)          (None, 256)               0         
_________________________________________________________________
dense_2 (Dense)              (None, 10)                2570      
=================================================================
Total params: 205,546
Trainable params: 205,546
Non-trainable params: 0
_________________________________________________________________
Epoch 1/30

  1/590 [..............................] - ETA: 2:31:43 - loss: 2.3501 - acc: 0.1094
  6/590 [..............................] - ETA: 25:09 - loss: 2.3192 - acc: 0.1042  
 11/590 [..............................] - ETA: 13:39 - loss: 2.3102 - acc: 0.1136
…
