…
2019-12-10 23:11:57.201425: I tensorflow/core/common_runtime/gpu/gpu_device.cc:1001] 0:   N 
2019-12-10 23:11:57.201835: I tensorflow/core/common_runtime/gpu/gpu_device.cc:1115] Created TensorFlow device (/job:localhost/replica:0/task:0/device:GPU:0 with 10232 MB memory) -> physical GPU (device: 0, name: GeForce RTX 2080 Ti, pci bus id: 0000:04:00.0, compute capability: 7.5)
INFO - None
_________________________________________________________________
Layer (type)                 Output Shape              Param #   
=================================================================
conv2d_1 (Conv2D)            (None, 28, 28, 32)        832       
_________________________________________________________________
batch_normalization_1 (Batch (None, 28, 28, 32)        128       
_________________________________________________________________
activation_1 (Activation)    (None, 28, 28, 32)        0         
_________________________________________________________________
conv2d_2 (Conv2D)            (None, 28, 28, 32)        25632     
_________________________________________________________________
batch_normalization_2 (Batch (None, 28, 28, 32)        128       
_________________________________________________________________
activation_2 (Activation)    (None, 28, 28, 32)        0         
_________________________________________________________________
max_pooling2d_1 (MaxPooling2 (None, 14, 14, 32)        0         
_________________________________________________________________
dropout_1 (Dropout)          (None, 14, 14, 32)        0         
_________________________________________________________________
conv2d_3 (Conv2D)            (None, 14, 14, 32)        25632     
_________________________________________________________________
batch_normalization_3 (Batch (None, 14, 14, 32)        128       
_________________________________________________________________
activation_3 (Activation)    (None, 14, 14, 32)        0         
_________________________________________________________________
conv2d_4 (Conv2D)            (None, 14, 14, 32)        25632     
_________________________________________________________________
batch_normalization_4 (Batch (None, 14, 14, 32)        128       
_________________________________________________________________
activation_4 (Activation)    (None, 14, 14, 32)        0         
_________________________________________________________________
max_pooling2d_2 (MaxPooling2 (None, 7, 7, 32)          0         
_________________________________________________________________
dropout_2 (Dropout)          (None, 7, 7, 32)          0         
_________________________________________________________________
flatten_1 (Flatten)          (None, 1568)              0         
_________________________________________________________________
dense_1 (Dense)              (None, 256)               401664    
_________________________________________________________________
dropout_3 (Dropout)          (None, 256)               0         
_________________________________________________________________
dense_2 (Dense)              (None, 10)                2570      
=================================================================
Total params: 482,474
Trainable params: 482,218
Non-trainable params: 256
_________________________________________________________________
Epoch 1/30

  1/590 [..............................] - ETA: 1:58:05 - loss: 5.0200 - acc: 0.0625
  4/590 [..............................] - ETA: 29:31 - loss: 7.3786 - acc: 0.1055  
  7/590 [..............................] - ETA: 16:52 - loss: 5.7600 - acc: 0.1183
…
