…
2019-12-10 22:49:04.335501: I tensorflow/core/common_runtime/gpu/gpu_device.cc:1001] 0:   N 
2019-12-10 22:49:04.335749: I tensorflow/core/common_runtime/gpu/gpu_device.cc:1115] Created TensorFlow device (/job:localhost/replica:0/task:0/device:GPU:0 with 10232 MB memory) -> physical GPU (device: 0, name: GeForce RTX 2080 Ti, pci bus id: 0000:05:00.0, compute capability: 7.5)
_________________________________________________________________
Layer (type)                 Output Shape              Param #   
=================================================================
conv2d_1 (Conv2D)            (None, 28, 28, 32)        832       
_________________________________________________________________
conv2d_2 (Conv2D)            (None, 28, 28, 32)        25632     
_________________________________________________________________
max_pooling2d_1 (MaxPooling2 (None, 14, 14, 32)        0         
_________________________________________________________________
dropout_1 (Dropout)          (None, 14, 14, 32)        0         
_________________________________________________________________
flatten_1 (Flatten)          (None, 6272)              0         
_________________________________________________________________
dense_1 (Dense)              (None, 256)               1605888   
_________________________________________________________________
dropout_2 (Dropout)          (None, 256)               0         
_________________________________________________________________
dense_2 (Dense)              (None, 10)                2570      
=================================================================
Total params: 1,634,922
Trainable params: 1,634,922
Non-trainable params: 0
_________________________________________________________________
Epoch 1/30

  1/590 [..............................] - ETA: 2:38:39 - loss: 2.3001 - acc: 0.0781
  5/590 [..............................] - ETA: 31:38 - loss: 2.3185 - acc: 0.1656  
  9/590 [..............................] - ETA: 17:31 - loss: 2.1605 - acc: 0.2639
…
