…
2019-12-10 22:49:04.429966: I tensorflow/core/common_runtime/gpu/gpu_device.cc:1001] 0:   N 
2019-12-10 22:49:04.430220: I tensorflow/core/common_runtime/gpu/gpu_device.cc:1115] Created TensorFlow device (/job:localhost/replica:0/task:0/device:GPU:0 with 10232 MB memory) -> physical GPU (device: 0, name: GeForce RTX 2080 Ti, pci bus id: 0000:85:00.0, compute capability: 7.5)
_________________________________________________________________
Layer (type)                 Output Shape              Param #   
=================================================================
conv2d_1 (Conv2D)            (None, 28, 28, 32)        320       
_________________________________________________________________
conv2d_2 (Conv2D)            (None, 28, 28, 32)        9248      
_________________________________________________________________
max_pooling2d_1 (MaxPooling2 (None, 14, 14, 32)        0         
_________________________________________________________________
dropout_1 (Dropout)          (None, 14, 14, 32)        0         
_________________________________________________________________
conv2d_3 (Conv2D)            (None, 14, 14, 32)        9248      
_________________________________________________________________
conv2d_4 (Conv2D)            (None, 14, 14, 32)        9248      
_________________________________________________________________
max_pooling2d_2 (MaxPooling2 (None, 7, 7, 32)          0         
_________________________________________________________________
dropout_2 (Dropout)          (None, 7, 7, 32)          0         
_________________________________________________________________
flatten_1 (Flatten)          (None, 1568)              0         
_________________________________________________________________
dense_1 (Dense)              (None, 256)               401664    
_________________________________________________________________
dropout_3 (Dropout)          (None, 256)               0         
_________________________________________________________________
dense_2 (Dense)              (None, 10)                2570      
=================================================================
Total params: 432,298
Trainable params: 432,298
Non-trainable params: 0
_________________________________________________________________
Epoch 1/30

  1/590 [..............................] - ETA: 2:37:23 - loss: 2.2985 - acc: 0.1094
  6/590 [..............................] - ETA: 26:05 - loss: 2.2922 - acc: 0.1693  
 13/590 [..............................] - ETA: 11:56 - loss: 2.1447 - acc: 0.2344
…
